…
2026-06-24 13:46:53.322472: E external/local_xla/xla/stream_executor/cuda/cuda_blas.cc:1471] Unable to register cuBLAS factory: Attempting to register factory for plugin cuBLAS when one has already been registered
Model: "model"
__________________________________________________________________________________________________
 Layer (type)                Output Shape                 Param #   Connected to                  
==================================================================================================
 input_1 (InputLayer)        [(None, 1025, 7)]            0         []                            
                                                                                                  
 conv1d (Conv1D)             (None, 510, 64)              2752      ['input_1[0][0]']             
                                                                                                  
 activation (Activation)     (None, 510, 64)              0         ['conv1d[0][0]']              
                                                                                                  
 batch_normalization (Batch  (None, 510, 64)              256       ['activation[0][0]']          
 Normalization)                                                                                   
                                                                                                  
 max_pooling1d (MaxPooling1  (None, 255, 64)              0         ['batch_normalization[0][0]'] 
 D)                                                                                               
                                                                                                  
 conv1d_1 (Conv1D)           (None, 253, 64)              12352     ['max_pooling1d[0][0]']       
                                                                                                  
 activation_1 (Activation)   (None, 253, 64)              0         ['conv1d_1[0][0]']            
                                                                                                  
 batch_normalization_1 (Bat  (None, 253, 64)              256       ['activation_1[0][0]']        
 chNormalization)                                                                                 
                                                                                                  
 max_pooling1d_1 (MaxPoolin  (None, 126, 64)              0         ['batch_normalization_1[0][0]'
 g1D)                                                               ]                             
                                                                                                  
 conv1d_2 (Conv1D)           (None, 124, 32)              6176      ['max_pooling1d_1[0][0]']     
                                                                                                  
 activation_2 (Activation)   (None, 124, 32)              0         ['conv1d_2[0][0]']            
                                                                                                  
 batch_normalization_2 (Bat  (None, 124, 32)              128       ['activation_2[0][0]']        
 chNormalization)                                                                                 
                                                                                                  
 max_pooling1d_2 (MaxPoolin  (None, 62, 32)               0         ['batch_normalization_2[0][0]'
 g1D)                                                               ]                             
                                                                                                  
 conv1d_3 (Conv1D)           (None, 60, 32)               3104      ['max_pooling1d_2[0][0]']     
                                                                                                  
 activation_3 (Activation)   (None, 60, 32)               0         ['conv1d_3[0][0]']            
                                                                                                  
 batch_normalization_3 (Bat  (None, 60, 32)               128       ['activation_3[0][0]']        
 chNormalization)                                                                                 
                                                                                                  
 max_pooling1d_3 (MaxPoolin  (None, 30, 32)               0         ['batch_normalization_3[0][0]'
 g1D)                                                               ]                             
                                                                                                  
 dropout (Dropout)           (None, 30, 32)               0         ['max_pooling1d_3[0][0]']     
                                                                                                  
 flatten (Flatten)           (None, 960)                  0         ['dropout[0][0]']             
                                                                                                  
 dense (Dense)               (None, 128)                  123008    ['flatten[0][0]']             
                                                                                                  
 activation_4 (Activation)   (None, 128)                  0         ['dense[0][0]']               
                                                                                                  
 batch_normalization_4 (Bat  (None, 128)                  512       ['activation_4[0][0]']        
 chNormalization)                                                                                 
                                                                                                  
 dropout_1 (Dropout)         (None, 128)                  0         ['batch_normalization_4[0][0]'
                                                                    ]                             
                                                                                                  
 dense_1 (Dense)             (None, 32)                   4128      ['dropout_1[0][0]']           
                                                                                                  
 dense_2 (Dense)             (None, 10)                   1290      ['dropout_1[0][0]']           
                                                                                                  
 activation_5 (Activation)   (None, 32)                   0         ['dense_1[0][0]']             
                                                                                                  
 activation_6 (Activation)   (None, 10)                   0         ['dense_2[0][0]']             
                                                                                                  
 dropout_2 (Dropout)         (None, 32)                   0         ['activation_5[0][0]']        
                                                                                                  
 out_speaker_count (Dense)   (None, 3)                    33        ['activation_6[0][0]']        
                                                                                                  
 out_angle (Dense)           (None, 20)                   660       ['dropout_2[0][0]']           
                                                                                                  
==================================================================================================
Total params: 154783 (604.62 KB)
Trainable params: 154143 (602.12 KB)
Non-trainable params: 640 (2.50 KB)
__________________________________________________________________________________________________
…
